TF_PROJECT/geo_fencing_model.tflite (tflite, 12204 bytes, 2 tensors)

arith.constant f4 [10, 64]
000000 80 1b 94 3d 99 80 8f 3e e0 b9 d9 3d 40 cb 17 3c
       0.07231808 0.280278 0.10631156 0.009264767
000010 00 88 4f ba 27 d3 21 be 87 82 8c be 7a 3e 72 3e
       -0.0007916689 -0.15803204 -0.27443334 0.23656645
000020 84 3a 42 be 54 e1 11 bd 4a 2b 7d 3e 7c a7 e7 bd
       -0.18967634 -0.03561528 0.24723545 -0.11311242
000030 e2 81 6e be 0b d2 65 be f0 3c 97 3c ce 56 68 3e
       -0.23291734 -0.22443406 0.018461674 0.22689363
000040 4c 90 84 3d e7 1f 8d be 5a b6 58 3e 8a a8 6e 3e
       0.06472835 -0.27563402 0.21163312 0.2330648
000050 e4 94 81 3d 60 40 0b bc 5a 48 40 3e a6 52 6d 3e
       0.06327227 -0.008499235 0.187776 0.23176059
000060 ce b0 15 be 5e d7 63 3e 36 ab c2 bd f0 2b fb bc
       -0.14618227 0.22250125 -0.09505312 -0.0306606
000070 08 de 4e bd 30 3e fa 3c f8 10 ab 3d 24 5a 9a 3d
       -0.050504714 0.030547231 0.08352846 0.07536724
000080 36 76 aa bd 87 98 1e be e4 02 3c 3e 88 07 38 bd
       -0.08323328 -0.15487872 0.18360478 -0.044929057
000090 98 25 58 3e 50 ec 4f be 20 b9 ff 3c 91 e4 20 be
       0.21108091 -0.2030499 0.031216204 -0.15712191
0000a0 7c 27 0b be a9 7d 8c be 15 60 8e 3e 1e 3d 74 be
       -0.13589281 -0.2743962 0.2780768 -0.2385144
0000b0 40 c8 4e be bc 10 96 3d 44 0e c3 3d 94 35 34 be
       -0.20193577 0.073274106 0.09524205 -0.17598563
0000c0 30 3b cb bc 70 6d d8 3c b2 7b 14 be 0d c6 5f be
       -0.024808496 0.026419371 -0.14500311 -0.21852894
0000d0 32 a3 0f 3e 8e 66 a4 bd e8 f1 4a 3e 11 27 87 3e
       0.14027098 -0.08027373 0.19818842 0.26396993
0000e0 29 80 01 be 08 d4 2f be 20 f1 b8 3d 86 1c 73 3e
       -0.12646545 -0.17170727 0.09030366 0.2374135
0000f0 db cc 5a be 2f 26 0b be 88 9a f8 3d c0 d7 7e 3d
       -0.21367209 -0.13588785 0.121388495 0.062217474
000100 40 00 3e bc 08 57 eb 3d 75 2f 8b be e0 cb a7 bc
       -0.011596739 0.11491209 -0.27184644 -0.020482957
000110 40 14 12 3e d3 ee 8b be 68 86 53 bd 33 59 81 3e
       0.14265537 -0.27330646 -0.05164185 0.25263366
000120 76 25 57 3e fc d3 61 bd d0 88 3e 3d a0 df 1a 3e
       0.21010384 -0.055133805 0.046517193 0.15124369
000130 a4 62 ca bd b6 98 87 be 0c 95 06 be 4c 4b 50 bd
       -0.098820955 -0.26483697 -0.13142794 -0.05085306
000140 dd a8 8f 3e 64 9b 33 3e b9 67 23 be f9 2c 86 3e
       0.2805852 0.17539746 -0.15957536 0.26206186
000150 0c d1 86 be 5c 38 0f 3e 09 ab 8b 3e bc 81 21 3e
       -0.26331365 0.13986343 0.27278927 0.15772146
000160 4e 18 3d be f6 67 6d 3e f4 2f 0b be a0 06 e2 bd
       -0.18466303 0.23184189 -0.13592511 -0.1103642
000170 e9 ce 4c be be 3d 77 3e 78 d0 69 3d 1a ba 32 3e
       -0.20000805 0.24144647 0.057083577 0.17453805
000180 ee 3d 78 3e c8 bc 4d 3e 14 13 e9 3d cd a1 1b be
       0.24242374 0.20091546 0.11380592 -0.15198441
000190 cc e8 32 3e 0c 81 0a be 88 dc 02 bd c4 99 fa bd
       0.17471617 -0.1352579 -0.031948596 -0.1223636
0001a0 6c 6d dc 3d 84 a8 0f 3e 20 df 24 be 64 23 b5 3d
       0.10763058 0.14029127 -0.1610074 0.08844641
0001b0 a2 d1 89 be 0a 4b 11 be f4 d6 22 bd e6 b3 e5 bd
       -0.2691775 -0.14188781 -0.039755777 -0.112159535
0001c0 42 8c 42 be 34 9c 17 bd 20 36 29 3d 28 bb 42 3d
       -0.18998817 -0.0370142 0.041311383 0.047541767
0001d0 fe 80 0a 3e e0 30 11 3d c6 be 30 3e 2e a9 bc bd
       0.13525769 0.035447 0.17260274 -0.09211956
0001e0 20 c1 87 be f8 46 31 be 4f 92 82 3e a2 59 8e be
       -0.2651453 -0.17312229 0.2550225 -0.2780276
0001f0 12 9a 1a 3e 00 84 81 bb 20 92 d2 bc 80 1b 19 3c
       0.15097836 -0.003952503 -0.025704443 0.009344935
000200 b7 7d 06 be 9d 2c 5d be d6 c4 c2 bd 40 d9 6b be
       -0.13133894 -0.2159905 -0.095102 -0.23032093
000210 d5 28 80 3e 4a 1f 6a 3e a8 d0 56 be 20 12 c1 3d
       0.25031152 0.22863498 -0.20978034 0.09427285
000220 b2 6d b1 bd 5c 62 5a 3e 66 f1 f4 bd 80 34 e1 bc
       -0.08663501 0.21326584 -0.119601056 -0.027490854
000230 36 e1 fc bd 48 aa 1a 3e 13 76 80 3e 00 6f 75 bb
       -0.12347643 0.1510402 0.25090083 -0.0037450194
000240 0a 1e 47 be ec bb 04 3e 18 7e 58 be 33 6f 8c 3e
       -0.19445053 0.12962312 -0.21141851 0.27428588
000250 b5 a8 08 be b4 c4 aa 3d 70 9c 85 bc 40 35 39 3e
       -0.13345607 0.083382994 -0.016309947 0.1808672
000260 f0 cd 82 3d 8c 99 9c 3d d2 21 33 3e 00 e6 c6 bb
       0.06386936 0.07646474 0.1749337 -0.0060698986
000270 5c 65 1a 3e fc ba 4a bd 3e ef 7a 3e 70 18 0b 3d
       0.15077728 -0.04949473 0.24505326 0.033958852
000280 20 1b 04 3e d2 43 84 be 94 ea 41 bd 9c 3f d0 3d
       0.12900972 -0.25832993 -0.04734285 0.101683825
000290 ed 43 89 3e c8 5d 2b 3e 34 7e 65 be 62 3c 63 3e
       0.26809636 0.16734993 -0.22411424 0.22191003
0002a0 1e b4 5c 3e 76 af 10 3e 51 49 66 be 01 e0 8f be
       0.21553084 0.14129433 -0.22488905 -0.2810059
0002b0 c0 a4 44 bc 66 cc e7 bd dc b8 fe bd 40 e3 8c 3b
       -0.01200217 -0.11318283 -0.12437603 0.0042995512
0002c0 f7 3e 4e be c6 86 35 be b8 5b 02 3e 37 2e 87 be
       -0.20141207 -0.17727193 0.127303 -0.26402447
0002d0 f8 61 1e bd d3 de 80 3e a0 17 f7 bc 83 90 8f 3e
       -0.03866765 0.2517 -0.030162632 0.2803994
0002e0 54 ef 54 be fa a6 17 3e b8 94 c5 3d 60 45 5f 3c
       -0.20794421 0.1480979 0.096475065 0.01362738
0002f0 a2 38 0a 3e 08 e6 21 be bb 5f 61 be d9 39 2a be
       0.13498166 -0.15810406 -0.22009175 -0.1662363
000300 38 7e 39 be 73 49 48 be 72 60 71 be 64 23 08 be
       -0.18114555 -0.19559269 -0.23571947 -0.1329475
000310 75 aa 4b be 40 16 2f be 50 5b aa 3d 84 6c ac 3d
       -0.19889243 -0.17098331 0.08318198 0.08419135
000320 f2 59 48 be 60 a2 62 bc bb 14 87 be b4 af ed 3d
       -0.19565561 -0.0138326585 -0.26383004 0.11605778
000330 18 f6 4b 3e d2 72 3a 3e e8 1a 2b 3e a0 8f f1 bd
       0.19918096 0.18207863 0.16709483 -0.117949724
000340 c0 07 20 3d e6 8b ff bd b6 55 45 3e 6d 04 66 be
       0.03906989 -0.124778554 0.19270977 -0.22462626
000350 3a c4 22 be a4 0a 85 3d 6a d8 7e 3e 80 dc e0 bd
       -0.15895167 0.0649617 0.24887243 -0.10979557
000360 dd 05 91 be 28 d0 2d 3e 94 f3 24 be 59 b5 16 be
       -0.28324786 0.16973937 -0.16108543 -0.14717616
000370 00 41 71 3d e9 25 82 3e 22 5e 7a 3e 87 92 91 3e
       0.05889988 0.25419548 0.24449971 0.28432104
000380 d1 2d 75 be 00 1b 1d bd 40 c3 74 bc 8d 7d 8c 3e
       -0.23943259 -0.038355827 -0.014939129 0.27439538
000390 c0 a0 8c bc f0 bd 1e 3e c6 1b 5c 3e bc 4a d5 3d
       -0.017166495 0.15502143 0.2149497 0.10414645
0003a0 d6 41 3c 3e 80 db 04 bb 34 9f 1e 3e da a7 44 3e
       0.1838449 -0.0020272434 0.15490419 0.19204655
0003b0 73 9f 91 3e c4 48 7c bd 88 fe 28 3d c8 07 19 3e
       0.28441963 -0.061592832 0.041258365 0.14944375
0003c0 b2 5b 6b 3e e0 c9 2a be cc bc 33 3e e6 aa 00 3e
       0.22984198 -0.16678572 0.17552489 0.12565193
0003d0 38 c1 7d be 3e e7 e6 bd 2e dc fa bd 90 78 f0 bc
       -0.24780738 -0.11274575 -0.12249027 -0.029354364
0003e0 12 86 2a 3e 76 51 04 3e 80 2e f2 bc 78 f2 29 3e
       0.16652706 0.129217 -0.029563189 0.165964
0003f0 94 d4 b0 3d e2 a3 46 be 16 40 85 be 46 72 25 3e
       0.08634296 -0.19398454 -0.26025456 0.16156873

sequential_1/dense_1/MatMul f4 [64, 32]
000000 3c 91 0c 3e c8 83 a6 3d cc 5b 22 be f8 2f 29 3e
       0.13727278 0.08130604 -0.1585533 0.16522205
000010 80 b9 9c bc 90 41 68 be 08 60 f4 bd 40 53 9a bd
       -0.019131422 -0.2268126 -0.11932379 -0.0753541
000020 40 8f 4f 3e b8 37 f9 3d a8 7a 6b be d8 f8 77 be
       0.2026949 0.12168831 -0.22996008 -0.2421602
000030 50 ba 1d be 2c 61 00 3e 40 ab be bd c0 43 4b be
       -0.15403104 0.12537068 -0.09310007 -0.19850063
000040 94 54 0d be 98 a0 52 be b0 5c 1a 3d 94 3e 08 3e
       -0.13801795 -0.20569074 0.03768605 0.13305122
000050 70 a8 07 3e 2c ab 79 3e f0 a3 67 3d 54 5c 7e 3e
       0.13247848 0.24381703 0.056552827 0.24839908
000060 24 32 43 be 60 25 42 be a0 75 1e 3d 38 28 44 3e
       -0.19062096 -0.1895957 0.038686395 0.19155967
000070 98 a6 8c 3d cc 4d 6c be 5c 8b 2d 3e 48 e5 8a 3d
       0.06867713 -0.23076552 0.16947693 0.06782013
000080 14 80 74 3e c8 4b 35 3e 2c a2 2f be 08 0b 52 3e
       0.23876983 0.1770469 -0.17151707 0.2051202
000090 f8 ed 0a be 44 b3 5d be bc 21 0e 3e 80 90 a4 3c
       -0.1356734 -0.21650416 0.13880056 0.020088434
0000a0 5c da 40 be 94 c0 38 be b0 12 a3 3d 70 5c 54 3d
       -0.18833297 -0.18042213 0.07962549 0.051845968
0000b0 d0 0c 38 3e 00 81 cf 3c 40 b9 87 bc 60 82 19 3e
       0.17973638 0.025330067 -0.016567826 0.1499114
0000c0 f0 81 8c 3d c0 40 0f 3c d0 cf 05 3e 28 79 6f be
       0.06860721 0.008743465 0.13067555 -0.23386061
0000d0 00 d6 36 3c e0 ca ac bc 9c 9a 6c 3e e8 3e 25 3e
       0.01115942 -0.021092832 0.23105854 0.16137278
0000e0 98 c4 d3 3d 00 49 bc 3d 00 c1 7b 3e 00 c5 5f 3b
       0.10340232 0.09193611 0.24585342 0.003414452
0000f0 90 0d 12 be 90 84 07 3d 5c 04 46 3e 80 bd 33 bc
       -0.14262986 0.033085406 0.193376 -0.010970473
000100 98 35 44 3e 74 0f 3c 3e 80 08 77 bc 0c de 25 be
       0.1916107 0.1836527 -0.01507771 -0.16197985
000110 f0 84 53 3d e0 71 8e 3d b0 26 66 be e8 d2 de bd
       0.05164045 0.06955314 -0.22475696 -0.10880071
000120 00 40 ed 3a 6c 26 5c 3e 5c b5 39 3e 68 7f cd 3d
       0.0018100739 0.21499032 0.1813559 0.100340664
000130 08 90 fe bd f0 5d 40 3e 94 5d 3b be 2c 0a 0b 3e
       -0.124298155 0.18785834 -0.18297416 0.13578099
000140 00 82 2d 3e a0 f2 da 3d b8 bf d2 3d 40 78 e8 bc
       0.16944122 0.10690808 0.10290474 -0.028377652
000150 f4 07 1a be 34 46 41 be 40 4b 71 be 6c dc 11 be
       -0.15042096 -0.18874437 -0.23563862 -0.1424424
000160 28 e8 f5 bd 60 f1 0f bd d0 0a 82 3d 40 14 96 bc
       -0.12007171 -0.035142303 0.063497186 -0.018320203
000170 80 84 00 be e0 73 1d bd bc ca 36 3e c0 8b a7 bd
       -0.12550545 -0.038440585 0.17850775 -0.08180952
000180 20 62 ea bd 10 43 fa 3d 80 b3 63 3c 50 3e b7 3d
       -0.11444497 0.122198224 0.013897777 0.08947432
000190 c0 c2 1b bd 18 db 1d be 70 f7 2b bd 78 ea ec bd
       -0.038027525 -0.15415609 -0.04198402 -0.11568159
0001a0 64 18 18 3e 50 39 da bd 14 94 22 be dc 1c 3a be
       0.14853054 -0.10655463 -0.158768 -0.18175071
0001b0 80 8f 84 bb c8 31 78 be c8 39 5c be 40 a9 2b 3c
       -0.004045427 -0.2423774 -0.21506417 0.010477364
0001c0 40 98 78 3d 00 bf cf bd 70 fa eb 3d 48 6c c4 bd
       0.060692072 -0.10143852 0.115223765 -0.095909655
0001d0 a4 b0 09 3e 60 a2 5d 3e 00 49 a0 3c 1c cf 6a be
       0.1344629 0.21643972 0.01956606 -0.22930568
0001e0 98 fc 01 be 44 eb 78 be 90 63 aa 3d 80 f4 61 bc
       -0.12694013 -0.24308497 0.08319771 -0.0137912035
0001f0 48 03 3d 3e 20 74 77 3e d8 bf 61 be d8 1f 57 3e
       0.18458283 0.24165392 -0.22045839 0.21008241
000200 c0 ef 5d 3c 5c da 2d be 28 ab 86 3d 8c 28 14 be
       0.01354593 -0.16977829 0.06575614 -0.14468592
000210 58 c1 fe 3d dc c0 74 3e cc f7 49 be 80 a8 d0 bc
       0.12439221 0.23901695 -0.19723433 -0.025470972
000220 dc 6e 14 be 1c b7 30 be 00 5b ca 3b 78 7c f2 3d
       -0.14495414 -0.1725735 0.006175399 0.11840147
000230 40 d6 72 bd 00 7c 47 bc f0 9c d3 bd 50 ea 3b 3e
       -0.059286356 -0.01217556 -0.10332668 0.18351102
000240 30 c5 b2 3d 70 68 01 be 20 6d 3e 3e 18 b2 5e 3e
       0.08729017 -0.12637496 0.18596315 0.21747625
000250 48 7b 56 3e 60 35 21 bd 48 86 72 3e 8c 6a 1e 3e
       0.20945466 -0.039357543 0.23684037 0.15470332
000260 50 4f eb 3d 48 2b 39 3e d0 e5 66 3d 08 85 26 be
       0.11489737 0.18082917 0.05637151 -0.16261685
000270 74 77 35 3e 00 05 70 bb 50 81 1a be 38 76 8d 3d
       0.17721349 -0.0036624074 -0.15088391 0.06907314
000280 b0 8c 06 bd cc 47 4d be 00 d9 ee 3c 90 18 7f 3e
       -0.032849014 -0.2004692 0.029156208 0.24911714
000290 88 a3 65 3e f0 41 b6 3d 68 da c5 3d 08 65 3d 3e
       0.22425663 0.08899295 0.09660798 0.18495572
0002a0 20 28 97 bd 78 1a 11 be ac 5e 2c 3e 64 55 68 be
       -0.073807 -0.14170253 0.1683299 -0.22688824
0002b0 c0 38 39 3e 50 3b 23 3e f4 f0 26 be e4 ee 1e 3e
       0.18088055 0.15940595 -0.16302854 0.15520817
0002c0 90 a7 14 3d 18 7b de bd f8 34 dd bd b0 e6 de 3d
       0.036292613 -0.10863322 -0.108011186 0.10883844
0002d0 40 22 52 3c 18 38 03 3e 40 1a 11 3d 00 0a ca bb
       0.012825549 0.12814367 0.035425425 -0.006165743
0002e0 b0 09 22 3e 58 f5 2a be 54 ff 32 3e 38 a3 ee bd
       0.15824008 -0.16695154 0.17480212 -0.11652225
0002f0 0c 7b 63 3e 84 72 17 be 10 59 28 3d 80 24 0d bc
       0.22214907 -0.14789778 0.04110056 -0.008614659
000300 5c 3a 14 be 5c 29 0c be dc d5 10 be 48 6d 4e be
       -0.14475387 -0.13687652 -0.14144081 -0.20158875
000310 10 17 24 3d 04 24 2c 3e 70 a3 73 bd c0 a9 57 3c
       0.040061057 0.16810614 -0.059482038 0.01316303
000320 d0 4e 99 bd 60 15 d5 bd 10 13 4d 3d e4 ef 59 3e
       -0.074857354 -0.104044676 0.050067008 0.21282917
000330 30 58 ab 3d c8 c4 d2 bd a8 64 a7 3d 00 c8 dc 3c
       0.0836643 -0.10291439 0.081734955 0.026950836
000340 a8 0f 34 be 70 9b 7e be e8 dd b9 3d e0 18 7b 3d
       -0.17584097 -0.24863982 0.090755284 0.06130302
000350 e0 a6 f2 3c f0 d7 7c 3e 10 09 5c 3d c4 df 3e 3e
       0.029620588 0.24691749 0.05371958 0.18640047
000360 68 b5 86 3d d8 4e f7 3d 20 28 be 3d b8 f5 f9 3d
       0.06577569 0.12075585 0.09284997 0.1220507
000370 9c ce 21 be 74 a1 1c 3e 40 2b eb 3d 40 0a cb bc
       -0.15801471 0.15295964 0.11482859 -0.024785161
000380 00 d3 d5 3c 50 fb 95 bd 7c b6 19 be e0 6c 55 bd
       0.02610159 -0.07323325 -0.15011019 -0.052105784
000390 44 68 21 3e f4 69 6c 3e a0 83 51 bd 08 ba 9b 3d
       0.1576243 0.23087293 -0.051150918 0.07603842
0003a0 30 b3 5e bd d0 83 16 3e d8 4e 49 be 28 ae bc bd
       -0.054370105 0.1469872 -0.19658983 -0.09212905
0003b0 a4 03 75 3e 50 41 7a 3e f0 95 51 3e e8 e3 54 3e
       0.2392717 0.24438977 0.20467353 0.20790064
0003c0 20 3d ea bc 20 96 f1 3d 48 5b c8 3d d8 9a 42 3e
       -0.0285936 0.11796212 0.097830355 0.1900438
0003d0 00 d1 7e 3e 10 95 df 3d e0 e7 83 bd 98 9d df bd
       0.24884415 0.10917103 -0.06440711 -0.109187305
0003e0 20 e1 11 3e 00 73 e4 3c c8 21 ad 3d c4 4d 4a 3e
       0.14246035 0.027886868 0.08453709 0.19756228
0003f0 08 17 62 be b8 95 b2 3d 88 da cc bd b8 10 2f be
       -0.22079098 0.08719963 -0.10002619 -0.17096221
