TF_PROJECT/geofencing_model.tflite (tflite, 4616 bytes, 5 tensors)

arith.constant f4 [1, 16]
000000 b4 a3 02 bf cd 66 8e 3e 8b 1a 15 3f 6e 3d c2 bd
       -0.5103104 0.27812806 0.58243626 -0.09484373
000010 21 00 c9 bd a8 f1 e9 3e 74 8d e7 3e 23 03 39 3d
       -0.09814478 0.45692182 0.45225108 0.045169007
000020 f3 a9 09 bf df 1f dd 3e d5 2c 71 3c 67 7d 68 be
       -0.53774947 0.43188378 0.014720161 -0.22704087
000030 7e 0b e0 3d 39 37 10 bf c2 2c 95 3e 05 5f 86 3e
       0.10939692 -0.56334263 0.2913571 0.2624437

arith.constant1 f4 [16, 32]
000000 8c e4 4a be 6b 19 41 bb 79 5d df bd a5 ed ac be
       -0.19813746 -0.0029464613 -0.109065 -0.33775058
000010 09 20 81 3e d7 8d ab 3e a1 dd 92 be 6d 87 14 be
       0.25219753 0.33506653 -0.28684714 -0.14504786
000020 4a 5c 75 3e 3c 2f 82 be 6e b1 b7 bd b9 f6 54 3e
       0.23960987 -0.25426662 -0.08969389 0.20797242
000030 21 31 af 3e 93 42 8d 3d 30 5d 9c 3d 20 db 25 bd
       0.3421717 0.06897464 0.076349616 -0.040492177
000040 09 84 b7 3e 94 36 d2 3d d1 1e 94 be b4 56 ca 3d
       0.35842922 0.10264316 -0.2892976 0.098798186
000050 02 27 2b 3e 45 97 81 3e d5 3e 9e be 90 a0 31 3d
       0.16714099 0.25310722 -0.30907312 0.043366015
000060 59 98 88 3e ff 97 8a 3d f8 9a 6f be 92 ea 75 3e
       0.26678732 0.06767272 -0.2339896 0.24015263
000070 57 21 84 be 45 0d 2a be 6a 51 0c be ee e5 9d bd
       -0.25806686 -0.16606624 -0.13702932 -0.07709871
000080 76 94 9c be 6d fa f3 bd bc c2 a0 bd f4 eb f4 bd
       -0.30582017 -0.11912999 -0.07849643 -0.11959067
000090 c4 b3 cc bd da e4 7f 3e a1 60 31 be 44 58 a0 3e
       -0.09995225 0.24989644 -0.17322017 0.3131734
0000a0 fa 37 51 3e 3c a6 a2 be f8 ce a9 be 92 3d 9c be
       0.2043151 -0.31767452 -0.33165717 -0.30515724
0000b0 3e 8d 7d 3e 3f 2e a6 3e e6 5d 21 be 45 15 19 be
       0.24760911 0.32457158 -0.15758476 -0.1494952
0000c0 91 b6 8e 3e c6 ec 7f 3e fb 58 44 3e 03 99 93 3e
       0.27873662 0.24992666 0.19174568 0.28827676
0000d0 fc 65 66 be ec 32 ab bd 36 4b 7e be 98 74 9c 3e
       -0.22499841 -0.08359322 -0.24833378 0.30557704
0000e0 ed 6e 33 3e 1b 7e 5a bd 4c 61 78 be ec bf 48 be
       0.17522784 -0.05334292 -0.24255866 -0.19604462
0000f0 6a 17 98 3e 48 cf 8b be 3c 78 8e 3c 73 73 43 3e
       0.29705364 -0.2730658 0.017391317 0.19087009
000100 39 ef 1c 3e 1e 64 cd 3d ab b5 27 3d d8 7b 75 bd
       0.15325631 0.100288615 0.040944736 -0.05993256
000110 59 48 30 be 7f c4 85 3e 0c a5 a4 3d ff 9c 38 3e
       -0.17215098 0.26126477 0.08039293 0.1802864
000120 22 84 57 3e ee 49 58 be a1 7a 62 be 23 f1 b2 bd
       0.21046498 -0.21121952 -0.22117092 -0.087373994
000130 93 0a 69 be 0a 25 20 3e ba 98 9b bd 64 54 d3 bd
       -0.2275794 0.1563913 -0.0759749 -0.103188306
000140 a2 09 ec 3c 1c f9 c4 bd df af 58 3e 70 4d 2e 3d
       0.028813187 -0.09617826 0.2116084 0.04255432
000150 68 22 2e 3d e6 20 42 be 27 d6 0d be bc d0 a9 3e
       0.04251328 -0.18957862 -0.13851224 0.33167064
000160 cb d0 9f be 5e 8b 1d 3e 60 53 b7 3c f5 22 35 be
       -0.31213984 0.15385196 0.022378623 -0.17689116
000170 44 96 00 3d 47 8b 9e be 1f f8 a8 be 39 83 b3 be
       0.031393304 -0.30965635 -0.330018 -0.35061052
000180 59 08 8c be 12 64 98 3e de 30 94 be 9e 97 2b 3e
       -0.2735012 0.29763848 -0.28943533 0.16757056
000190 00 32 10 3b d3 3f 9e bd ec b8 93 be 1f fb b5 3e
       0.0022002459 -0.07727017 -0.28852022 0.35543153
0001a0 49 c9 b4 be 10 a7 a1 3c 94 df 23 3e 78 5a 85 bd
       -0.35309818 0.019732982 0.16003257 -0.06511396
0001b0 d1 d4 46 be d0 7e e9 bb d4 df 4b 3d 10 55 f9 3d
       -0.1941712 -0.007125713 0.049774006 0.121744275
0001c0 51 2a 8c 3d 95 a4 93 3e 23 06 93 bd 95 2f 98 3e
       0.06844009 0.28836504 -0.07178905 0.29723802
0001d0 30 73 b8 bc ff d3 83 be a0 2f d9 3d 04 58 b8 3e
       -0.022515863 -0.25747678 0.10604787 0.3600465
0001e0 23 73 e9 3c bd 9d 8c 3e f6 e1 60 be 8e 24 73 be
       0.028497284 0.27464095 -0.21961197 -0.23744413
0001f0 e4 ce af 3e a8 d6 2d 3d 7a 06 35 3e b6 ca d7 3d
       0.34337533 0.04244104 0.17678252 0.10536711
000200 0f c5 9a 3e 22 ce ed bd 6a a9 4a bc 19 ca 0a be
       0.3022847 -0.11611582 -0.012369493 -0.13553657
000210 04 7e a1 be c2 c3 06 3e ab 00 9c 3e a0 40 20 bc
       -0.31541455 0.13160613 0.3046926 -0.009781033
000220 aa 64 53 3e 3e 48 3f be b4 55 ea bd 47 a6 85 3e
       0.20643869 -0.18679902 -0.11442128 0.26103422
000230 d2 6c 5f 3e e5 78 ae be 01 ec ae be 32 3f 41 3e
       0.21818855 -0.3407661 -0.34164432 0.18871763
000240 3f 21 3b be 5e 70 a7 be b0 d5 fd bc 38 40 3f 3d
       -0.18274401 -0.32702917 -0.030985683 0.046692103
000250 66 00 ac 3e aa b4 83 be e9 f9 2e be 80 dd 67 bb
       0.33594054 -0.25723773 -0.1708752 -0.0035379827
000260 fc 07 ed bd 36 0e 9b be e8 5a 83 3e 1f ca 63 3e
       -0.115737885 -0.3028428 0.25655293 0.22245072
000270 d2 d4 b4 be 4d 05 81 be ec 12 0a 3e a8 45 e2 bd
       -0.3531862 -0.25199357 0.1348378 -0.11048442
000280 74 c0 9c be b6 b2 40 3e 41 9c 8d 3b 93 a2 08 be
       -0.3061558 0.18818173 0.0043216054 -0.13343267
000290 38 00 7b 3d f6 6b 2a 3e 52 f5 a2 3e 42 b9 75 be
       0.061279505 0.16642746 0.3182779 -0.23996451
0002a0 e1 a2 83 3e ed 06 20 be 25 e9 b3 be bc 40 0d 3e
       0.25710204 -0.15627642 -0.35138813 0.13794225
0002b0 9a 7b 5d 3e e8 b3 f6 bd 33 0a 3b be 70 09 aa bd
       0.21629182 -0.12046033 -0.1826561 -0.08302581
0002c0 e8 10 78 bd 39 b4 aa be f0 c5 30 bd 2c d7 84 be
       -0.060562998 -0.33340624 -0.043157518 -0.25945413
0002d0 a0 3d 62 3c af ec af 3e 8c bc b9 3e f2 17 50 3e
       0.013808638 0.34360263 0.36276662 0.20321634
0002e0 e0 92 27 be 68 ed 80 bd 71 a5 84 3e 6e 3e 8e 3d
       -0.16364622 -0.06295282 0.25907472 0.06945501
0002f0 a6 93 d7 bd 10 9b 0d be 9c 34 c6 bd db ba 88 3e
       -0.105262086 -0.13828683 -0.09678003 0.2670506
000300 8e e7 36 3e 5e 25 7b 3e 0e 9e 78 3e e6 01 3e 3e
       0.17861769 0.24525973 0.24279043 0.18555412
000310 a8 84 1f 3d c2 a0 38 3e 6c d6 a0 3d 40 c0 07 bd
       0.03894487 0.18030074 0.07853398 -0.03314233
000320 a1 48 42 be 3e 9e 06 be ef 38 48 be df fc 0c be
       -0.18973018 -0.13146302 -0.19552968 -0.13768338
000330 38 8a 56 be d0 bf c8 3c 94 4e 80 be ee 5c 33 3e
       -0.20951164 0.024505526 -0.2505995 0.17515919
000340 0b f9 87 be 88 87 a2 bd 02 ee 0b be d5 05 8d 3e
       -0.26557192 -0.07936007 -0.13665012 0.27543512
000350 6f 19 91 be 61 35 88 3e 11 6d 8c 3e 92 18 6b 3e
       -0.28339717 0.26603225 0.2742696 0.22958592
000360 d8 55 48 3d 5b 8d 8d be aa 55 32 be 3e 6a 46 3e
       0.048909992 -0.27646908 -0.17415491 0.19376466
000370 60 fa 5c be c6 3e 4f be 11 7a 84 be 40 f0 1a be
       -0.21579885 -0.2023879 -0.2587438 -0.1513071
000380 21 7c 72 be 48 2b 49 bd 3d f0 8d be 3a 56 a0 be
       -0.23680164 -0.04911354 -0.2772235 -0.31315786
000390 e0 66 bf 3d e7 57 8b be 8a 8c 86 3e 9c fd d1 bd
       0.09345794 -0.27215502 0.26279098 -0.1025345
0003a0 64 e7 ae 3e e5 41 3c 3c a8 7a 8f 3d 00 ff 9d 3d
       0.34160912 0.01149032 0.07005817 0.07714653
0003b0 96 64 a2 be 84 86 b7 3d ac 17 60 be 88 07 fc 3d
       -0.31717366 0.08961204 -0.2188403 0.12306124
0003c0 65 ac 58 be 35 01 90 3e 50 c5 c4 bd 6d 7b 8c 3d
       -0.21159513 0.2812592 -0.09607947 0.06859479
0003d0 37 ee 8a 3e c2 b4 30 3e 30 06 e1 bb 12 56 28 3e
       0.27134869 0.17256454 -0.0068671927 0.16439083
0003e0 1c 02 b2 3d c6 4d 36 3e 43 ac 93 3d 7a 7e 84 3e
       0.086918086 0.17803106 0.07210591 0.25877744
0003f0 24 ae 19 be ef be 3e bc c8 a1 8a bd 0a bf 62 3e
       -0.15007836 -0.011642202 -0.067691386 0.22143188

sequential_1/dense_1_2/Add/ReadVariableOp f4 [16]
000000 59 32 ea 3b dd 5f e8 bb aa 80 e8 bb b0 63 e9 3b
       0.007147115 -0.007091506 -0.007095416 0.0071224794
000010 92 4d 23 bc fe f3 23 3c 00 00 00 00 92 01 25 3c
       -0.009967225 0.010006903 0.0 0.010071175
000020 99 91 2c 3a f6 2f 89 bb 3d 2a 26 3c 92 ef e8 3b
       0.0006582975 -0.0041866256 0.010141906 0.007108637
000030 e1 02 e8 bb b9 f4 35 3a 00 00 00 00 13 5c e8 bb
       -0.0070804213 0.00069410686 0.0 -0.007091054

sequential_1/dense_1/Add/ReadVariableOp f4 [32]
000000 79 bb e8 3b f9 5a e7 bb aa ca 20 bc d1 22 23 bc
       0.0071024266 -0.0070604053 -0.009813944 -0.009957031
000010 00 00 00 00 3b e4 eb 3b 9b 3c 24 3c 0b d5 e8 bb
       0.0 0.007198838 0.010024215 -0.007105475
000020 04 3f 23 bc 38 72 23 bc 06 4a e5 3b 73 7a ea 3b
       -0.009963755 -0.009975962 0.0069973497 0.0071557104
000030 00 00 00 00 8f fa e5 bb bf 57 81 3b 6e 48 23 bc
       0.0 -0.0070183943 0.0039472277 -0.009965999
000040 06 0f d5 bb 73 2c 24 3c d9 61 e8 bb ae 52 24 3c
       -0.006502035 0.010020363 -0.0070917425 0.010029478
000050 ec 08 23 bc 00 00 00 00 18 94 24 3c f9 a1 e5 bb
       -0.009950858 0.0 0.010045074 -0.007007834
000060 ec c8 c9 3b a0 a1 d8 bb 95 7f 25 3c d5 ec 22 bc
       0.006157985 -0.006611064 0.010101219 -0.0099441605
000070 0d 39 e8 bb ab 89 23 bc 82 61 eb 3b c4 41 e9 bb
       -0.007086879 -0.009981553 0.0071832547 -0.0071184356

sequential_1/dense_1/MatMul f4 [32, 2]
000000 6b 37 8b 3e eb be 8f be 57 42 bb be 9a 43 3f be
       0.27190718 -0.28075346 -0.3657405 -0.18678132
000010 bf af 07 3e eb 4a 54 bc 29 31 4b be ff 41 55 3e
       0.13250636 -0.012957315 -0.19842972 0.20825957
000020 e4 13 18 be e0 a9 7d bc 7e ef 82 bc 18 56 98 be
       -0.14851338 -0.015482396 -0.01598334 -0.29753184
000030 68 71 83 bc 23 e4 29 3e 39 8b af be 0c 23 7c be
       -0.016045287 0.16590934 -0.34285906 -0.24622744
000040 d4 1d 90 3e fb 83 8a 3e a7 b2 eb 3d 87 04 1d 3e
       0.28147757 0.27053818 0.115086846 0.15333758
000050 46 49 08 3e 6b a9 6f bd 74 77 c9 3e ab 05 91 be
       0.13309202 -0.05851118 0.39348948 -0.28324637
000060 a8 f6 9f be 80 a4 5c bc d0 46 9b be 55 cb b4 be
       -0.3124287 -0.013466954 -0.30327463 -0.3531138
000070 f4 dc c3 3e 1f 59 88 3c 61 0f cd 3e 06 62 9d 3e
       0.3825451 0.016644059 0.40050796 0.30738848
000080 a2 6d 96 bc 4c 35 2e be 9a 29 2a be d5 09 4a 3e
       -0.018362824 -0.17012519 -0.16617432 0.19730313
000090 ae 6e aa 3e d0 9f 6d be cc 02 52 be be 88 2a 3d
       0.33287567 -0.23205495 -0.2050888 0.041634314
0000a0 cd 46 5d be 91 b9 bb 3e 41 dc 56 be 40 dd 9b 3b
       -0.2160904 0.36665013 -0.20982458 0.0047565997
0000b0 93 bd 4a be cd 30 1d 3e 2d 32 21 3e 6e 8e 85 be
       -0.1979888 0.15350647 0.15741797 -0.26085228
0000c0 2c 2e b9 3d cb d5 7a ba ee 05 bb bd 93 d1 b2 be
       0.0904201 -0.0009568601 -0.091319904 -0.34925517
0000d0 01 5a 2e be e6 b9 6f 3e f3 8c a8 be 0a cb 02 3e
       -0.17026521 0.23410758 -0.32920036 0.12772766
0000e0 f6 19 bd 3e 7c 38 8c bd 13 3b b9 be 3e 90 a7 3e
       0.3693387 -0.06846711 -0.36177883 0.32727236
0000f0 ad 11 7b be 55 48 f8 bd 9b b5 b3 bd 1e d7 34 bd
       -0.24518462 -0.12123171 -0.08774873 -0.044150464
